…
2024-03-28,16:19:54 | INFO | Running in distributed mode with multiple processes. Device: cuda:0.Process (global: 0, local 0), total 4.
2024-03-28,16:19:55 | INFO | Loaded ViT-B-16 model config.
2024-03-28,16:20:00 | INFO | Loading pretrained ViT-B-16 weights (laion400m_e32).
2024-03-28,16:20:00 | INFO | Loading pretrained ViT-B-16 weights (laion400m_e32).
2024-03-28,16:20:00 | INFO | Loading pretrained ViT-B-16 weights (laion400m_e32).
2024-03-28,16:20:00 | INFO | Loading pretrained ViT-B-16 weights (laion400m_e32).
2024-03-28,16:20:01 | INFO | Model:
2024-03-28,16:20:01 | INFO | CLIP(
  (visual): VisionTransformer(
    (patchnorm_pre_ln): Identity()
    (conv1): Conv2d(3, 768, kernel_size=(16, 16), stride=(16, 16), bias=False)
    (patch_dropout): Identity()
    (ln_pre): LayerNorm((768,), eps=1e-05, elementwise_affine=True)
    (transformer): Transformer(
      (resblocks): ModuleList(
        (0-11): 12 x ResidualAttentionBlock(
          (ln_1): LayerNorm((768,), eps=1e-05, elementwise_affine=True)
          (attn): MultiheadAttention(
            (out_proj): NonDynamicallyQuantizableLinear(in_features=768, out_features=768, bias=True)
          )
          (ls_1): Identity()
          (ln_2): LayerNorm((768,), eps=1e-05, elementwise_affine=True)
          (mlp): Sequential(
            (c_fc): Linear(in_features=768, out_features=3072, bias=True)
            (gelu): GELU(approximate='none')
            (c_proj): Linear(in_features=3072, out_features=768, bias=True)
          )
          (ls_2): Identity()
        )
      )
    )
    (ln_post): LayerNorm((768,), eps=1e-05, elementwise_affine=True)
  )
  (transformer): Transformer(
    (resblocks): ModuleList(
      (0-11): 12 x ResidualAttentionBlock(
        (ln_1): LayerNorm((512,), eps=1e-05, elementwise_affine=True)
        (attn): MultiheadAttention(
          (out_proj): NonDynamicallyQuantizableLinear(in_features=512, out_features=512, bias=True)
        )
        (ls_1): Identity()
        (ln_2): LayerNorm((512,), eps=1e-05, elementwise_affine=True)
        (mlp): Sequential(
          (c_fc): Linear(in_features=512, out_features=2048, bias=True)
          (gelu): GELU(approximate='none')
          (c_proj): Linear(in_features=2048, out_features=512, bias=True)
        )
        (ls_2): Identity()
      )
    )
  )
  (token_embedding): Embedding(49408, 512)
  (ln_final): LayerNorm((512,), eps=1e-05, elementwise_affine=True)
)
2024-03-28,16:20:01 | INFO | Params:
2024-03-28,16:20:01 | INFO |   accum_freq: 32
2024-03-28,16:20:01 | INFO |   aug_cfg: {}
2024-03-28,16:20:01 | INFO |   batch_size: 256
2024-03-28,16:20:01 | INFO |   beta1: 0.9
2024-03-28,16:20:01 | INFO |   beta2: 0.98
2024-03-28,16:20:01 | INFO |   checkpoint_path: /gscratch/krishna/arnabk1/mayank_clip_mrl/scripts/logs/ViT-B-16_liaon400m_e32_b256_accum32_gpu4_finetune_no_mrl_ep10_warmup_500_lr1e-07/checkpoints
…
